model.pth (torch, 91825 bytes, 8 tensors)

conv1.weight f4 [10, 1, 5, 5]
000000 26 5a 82 3d 41 37 63 be a7 95 dc be 79 71 c9 be
       0.06364851 -0.22189046 -0.43082926 -0.39344385
000010 e2 80 86 be b1 61 91 3e e9 d2 4c 3e 8c 55 c4 3d
       -0.26270205 0.28394845 0.20002331 0.09586629
000020 ac 99 1e bc af 27 11 be ff 79 3b 3e ce a8 07 3f
       -0.009680193 -0.14175294 0.18308257 0.5299195
000030 97 c4 05 3f a4 31 af 3e 1b 88 b0 3d 5d f2 42 be
       0.522531 0.3421756 0.0861971 -0.19037767
000040 ea 7f 49 3e 67 7d 79 3e 87 d0 d7 3e 1d b9 9a 3e
       0.19677702 0.24364243 0.4215128 0.30219355
000050 ae 27 e0 be 53 b3 0a bf d9 0e d5 be 2b 88 b1 be
       -0.43780273 -0.5417988 -0.4161289 -0.346742
000060 db d0 f9 bd f2 70 65 3e a4 a6 ad 3e c7 85 b8 3d
       -0.12198039 0.22406366 0.339162 0.09009891
000070 00 0c f8 be f1 53 80 be 06 c4 bd 3e c3 dc c9 3e
       -0.48446655 -0.25064042 0.37063617 0.3942624
000080 8b af 99 3d cf 66 fa be 81 c8 c0 be fc 1d ac 3e
       0.07504185 -0.48906562 -0.37652972 0.33616626
000090 3f 72 fd 3e d1 4b bb bd 02 72 ae be b8 df b4 be
       0.49501225 -0.0914532 -0.34071356 -0.35326934
0000a0 7b df d7 3e 27 23 87 3d 6c 37 e5 3d 65 60 b6 be
       0.4216269 0.06598502 0.111922115 -0.35620418
0000b0 2f a1 54 be 4f 33 a4 3e bf 34 09 3e 4f 17 68 3d
       -0.20764612 0.32070395 0.13399027 0.056662854
0000c0 34 c3 af be b1 42 eb bd 9c 31 a9 be 73 83 4c be
       -0.34328616 -0.1148733 -0.3304566 -0.19972019
0000d0 03 a4 e0 bc 8c ea b4 3d e9 83 bf 3e ee f4 00 be
       -0.027421957 0.08833799 0.37405327 -0.12593433
0000e0 b0 10 ea 3b d4 84 06 3e 87 05 0d 3f ad ae 2c 3e
       0.0071431026 0.13136607 0.5508656 0.16863509
0000f0 ae 1e d5 bd f2 ca b5 3e c0 22 0e 3f 2e aa 13 3f
       -0.10406242 0.35506397 0.55521774 0.5768155
000100 42 6e c7 be ff f4 15 3e 99 52 6d 3e ce e3 05 3e
       -0.38951308 0.1464424 0.2317604 0.13075182
000110 b1 74 b2 be 34 7b 1a bf 60 2f ac 3b 8f 07 15 be
       -0.34854653 -0.60344243 0.005254671 -0.14553665
000120 19 ae 61 be d5 f6 d9 be 0f d9 33 be 3d e9 3d 3e
       -0.22039069 -0.4257113 -0.1756327 0.18546005
000130 6d 0a fd 3e 1e aa c3 3e ca 8a c1 bd 13 1b 0b 3d
       0.49422017 0.38215727 -0.094503 0.033961367
000140 00 66 b2 be 70 e6 1a be d1 2b 9e 3d a5 25 a4 3d
       -0.34843445 -0.15126967 0.07723201 0.080149926
000150 99 e7 59 3e b2 60 ba be 67 c6 e0 be a3 bc 52 3d
       0.21279754 -0.36401898 -0.4390137 0.05144943
000160 46 0e cf 3d d4 a5 79 3e 37 b2 de 3d 57 bc 91 be
       0.10110144 0.24379665 0.108738355 -0.28464004
000170 3c c2 17 be f6 f7 44 3d 17 15 bc bd 4c 41 46 3e
       -0.14820188 0.048088036 -0.0918371 0.19360846
000180 aa 7b 20 3e 9d 84 47 be 84 9d 79 be 93 76 0e be
       0.15672174 -0.19484182 -0.24376494 -0.1391242
000190 01 1d 73 3e 7c 4c f4 bc 96 08 84 3d c3 dd 0a bd
       0.23741533 -0.029821627 0.0644695 -0.033902895
0001a0 4b df 9e be 71 c8 4e be 58 de 91 3e 5f a0 d7 3c
       -0.31029734 -0.2019365 0.28489947 0.026321588
0001b0 1c cc e7 3c 65 d7 12 be b0 b7 66 39 70 fe ca 3e
       0.02829557 -0.14339979 0.00022002938 0.39647245
0001c0 67 a0 97 3e f8 8a 5c be f9 99 7a bd a6 f1 0a 3e
       0.29614565 -0.21537387 -0.061181996 0.13568744
0001d0 56 4d c7 3e 9b 18 ab 3e dd 15 60 3c 59 60 65 bb
       0.3892619 0.3341721 0.013677088 -0.0035000055
0001e0 14 34 47 be b6 ad 9e 3d d3 e6 b2 3e ce 3b 81 3d
       -0.1945346 0.077479765 0.3494173 0.06310235
0001f0 bf 50 b4 3e c5 21 0c bf 38 07 20 bf b6 4e 93 be
       0.35217854 -0.5473903 -0.62511015 -0.2877099
000200 c9 18 56 3e d8 0f f4 3e b8 6e 1c bf 1f 60 ee bd
       0.20907892 0.47668338 -0.61106443 -0.116394274
000210 1d 45 87 3e 60 64 e9 3e e4 99 94 3e c7 b2 f6 bd
       0.26419917 0.45584393 0.2902366 -0.12045818
000220 02 67 08 3e 9e e1 29 3e f1 51 c1 3d cb 26 df bd
       0.13320544 0.16589972 0.09439457 -0.10896071
000230 48 89 06 be a7 f6 9e bd a2 2c db bd cd 0b 2b 3e
       -0.13138306 -0.07761889 -0.107018724 0.1670372
000240 f7 85 3a 3e 37 94 35 bd a5 3d 09 3d 2a 3e c9 3d
       0.18215166 -0.0443308 0.033506054 0.0982631
000250 16 3e 47 3e 47 1b 79 3e c1 92 b0 bd bd 3c 7f 3d
       0.19457278 0.24326812 -0.08621741 0.062313784
000260 37 b3 3a be 2b 89 1e be 35 63 93 be aa ba 88 be
       -0.18232428 -0.15482013 -0.28786626 -0.26704913
000270 62 bd a1 be cb 67 7e be 24 9f 8e 3d 63 0c b3 bd
       -0.315898 -0.24844281 0.069639474 -0.08742597
000280 f7 2c 6e be fe 40 05 3d 2d eb 82 3d 41 bf 1e 3e
       -0.2325934 0.032532685 0.063925125 0.15502645
000290 fc 7f b7 bd c6 bc af 3d 01 10 70 bd 50 9f ea bc
       -0.08959958 0.085809276 -0.058609013 -0.02864042
0002a0 21 4c af bd 44 1b 99 3c ef e9 a1 3d c0 91 34 3e
       -0.08559442 0.01868976 0.079059474 0.17633724
0002b0 d2 99 14 3e 99 93 98 3e 93 fd ff 3e 7b cf 6e 3d
       0.14511803 0.29800108 0.4999815 0.058303338
0002c0 5d d5 3b 3e fc a0 06 3e b2 22 f6 bd da 71 a9 3e
       0.1834311 0.13147348 -0.12018336 0.33094674
0002d0 a6 f0 81 be 0a a2 9e be 42 06 1a bf 50 f1 08 bf
       -0.25378913 -0.30983 -0.601658 -0.53493214
0002e0 6e ad f7 be 56 d1 21 3e 9e 54 a4 be c2 a1 bb be
       -0.48374504 0.15802512 -0.32095808 -0.3664685
0002f0 b8 68 8d be 66 b1 b3 be 3f b3 40 3e 52 b6 32 3e
       -0.27618957 -0.35096282 0.18818377 0.17452362
000300 56 66 7c 3e d0 24 66 3e 4a 5a 92 3e 77 77 28 be
       0.24648413 0.2247498 0.2858451 -0.16451822
000310 14 d5 ec 3e e6 18 23 3f 81 f5 02 3f e3 23 a5 3d
       0.46256316 0.63709867 0.5115586 0.080634855
000320 db f2 86 bd 56 ae 81 be 70 ba 49 3e 7e 34 1e 3d
       -0.0658929 -0.2532832 0.19700027 0.03862428
000330 78 94 ef 3d c8 03 cf bd 2a 95 df bd cb 4e 88 ba
       0.1169824 -0.10108143 -0.10917123 -0.0010399459
000340 8d 43 45 3e bb 1b 5d 3e 27 ef ca 3d c6 63 90 3d
       0.1926405 0.2159261 0.09908896 0.0705028
000350 fb 60 4a be e2 b1 7a 3e 6e a6 bf 3e 73 4d 60 3e
       -0.19763558 0.2448192 0.37431663 0.21904545
000360 08 ef e5 3d 52 7e 74 be 7e a9 17 be b3 d3 90 3e
       0.11227232 -0.23876312 -0.1481075 0.28286514
000370 2d 8d b3 be 32 a3 1f bd 09 29 b7 be 75 dc c9 be
       -0.35068646 -0.038973995 -0.35773495 -0.39426008
000380 27 88 6c ba ba f4 04 be a9 f9 1d 3e 77 fa f9 3e
       -0.0009022974 -0.12983981 0.15427269 0.48823902
000390 03 25 c5 3e 36 29 a6 3e e7 61 4c be dc d8 3b be
       0.385048 0.32453316 -0.19959222 -0.18344444
0003a0 01 a1 c9 3e 55 0d 8c 3e 37 4b 90 3e d7 7d 2a be
       0.3938065 0.27353922 0.28182384 -0.16649567
0003b0 0e 42 a0 be 11 da c9 3d 74 74 a8 3e 2c 7b 5b 3e
       -0.31300396 0.09856046 0.32901347 0.21433705
0003c0 5e fb be be b2 94 b0 be c1 97 47 be d9 66 99 ba
       -0.37301153 -0.34488446 -0.19491483 -0.0011703625
0003d0 3d a2 38 3d 2c 13 48 be 56 ba 08 bf a5 9d 06 bf
       0.045076597 -0.19538563 -0.53409326 -0.52584296
0003e0 18 bd a4 be 92 47 84 3d
       -0.32175517 0.064589635

conv1.bias f4 [10]
000000 e7 17 07 be 55 29 bc bd ea 50 d9 bd 61 cd 0d bc
       -0.13192712 -0.09187571 -0.10611136 -0.008654923
000010 87 de 78 3e 09 fd 67 3c 85 2a 89 3d 20 67 a0 bd
       0.24303637 0.014159449 0.06697563 -0.078321695
000020 0c 9e d6 bc 29 bb ab bd
       -0.02619841 -0.08385307

conv2.weight f4 [20, 10, 5, 5]
000000 a2 69 10 bd 78 81 a9 bd 01 ab 46 be 62 10 37 bc
       -0.03525699 -0.08276647 -0.1940117 -0.01117334
000010 ae cb cc bb 58 0d c5 bd 7c 6f a9 3b 27 fd a0 bd
       -0.0062498664 -0.09621686 0.0051707607 -0.07860785
000020 c7 ba 6f 3d 6a 99 3b bc 10 cf 13 bd 4b 4e 80 bd
       0.058527734 -0.011450151 -0.036086142 -0.06264933
000030 34 8e d2 bd 9e 93 ac 3b 28 9a 9f 3b bc 08 0c be
       -0.10281029 0.005266621 0.004870672 -0.13675207
000040 a6 b5 2f be d0 b8 a5 bd cb d7 86 3b ff b0 81 3d
       -0.17159137 -0.08091891 0.00411508 0.063325875
000050 75 6c 04 be 3a 7d bd bd ea 74 46 39 8b 58 7e 3d
       -0.12931998 -0.09252401 0.00018926305 0.06209616
000060 34 cc d2 bb 4c 8b 09 3e c7 91 8f 3c 03 d7 84 3b
       -0.0064330343 0.13432044 0.017525567 0.0040539517
000070 88 ee a1 3c 52 8d 4c bd d0 6b 13 3e dd 47 91 bc
       0.01976706 -0.04993946 0.14396596 -0.017734462
000080 be c6 38 3d 0a ce 86 3d f4 52 ea bc 99 34 78 3d
       0.04511141 0.065822676 -0.028604008 0.060597036
000090 2e 0e 86 bd 5f 5b a7 3d 1f d5 05 3d c2 2b 4e bc
       -0.06545673 0.081717245 0.03267395 -0.012583675
0000a0 b9 fe 6b 3d 80 50 07 3d 20 62 a9 3d c1 de b2 3c
       0.05761597 0.033035755 0.08270669 0.021834733
0000b0 31 b6 41 3a 61 0c 43 3d 95 e2 27 3e eb 17 4d 3e
       0.00073895144 0.047619227 0.16395028 0.20028655
0000c0 73 2a 08 3d 4a b0 bd 3c ad 6b 90 3c ad 85 ac ba
       0.033243608 0.02315535 0.017629469 -0.0013162397
0000d0 e5 d7 b0 bc 6d 75 1e bd f2 28 91 3d 69 b3 06 be
       -0.021587322 -0.038686205 0.07087888 -0.13154377
0000e0 c8 b2 85 bd 38 c8 d2 3d 8a ef 08 3e 0c b7 15 3e
       -0.065282404 0.10292095 0.13372627 0.14620608
0000f0 cf 97 09 be 5e 07 36 3d 63 30 e2 3d 7f a9 ef 3d
       -0.13436817 0.04444062 0.11044385 0.11702251
000100 c0 1a 46 3c 90 59 18 be 2b bf 66 3b 96 6c 29 3c
       0.012091339 -0.14877915 0.003520916 0.01034083
000110 c8 ef f1 bd 4d 8b b3 bd 31 ab ac bc 8a 66 b5 bc
       -0.11813313 -0.08766804 -0.021077724 -0.022143621
000120 cf 79 81 bd b9 3b 00 be 81 f0 00 bd b9 04 59 bc
       -0.06322061 -0.12522782 -0.031479362 -0.013245755
000130 46 96 6e bd 7e cb 52 bc 5c 37 77 3d 28 3b 1e 3d
       -0.05824878 -0.012865899 0.06035553 0.038630635
000140 85 98 84 bd 7e 80 8f bd 7f 58 84 bd 67 44 48 3d
       -0.06474403 -0.0700693 -0.06462192 0.04889336
000150 0e bf cb bc 78 b2 20 bd c3 37 38 bc 08 7e 01 bd
       -0.024871375 -0.0392327 -0.011243763 -0.031614333
000160 67 7d 46 bd ff 4a 50 bd 8a 58 2b 3c ab fc f4 b7
       -0.048459437 -0.05085277 0.010458121 -2.9204724e-05
000170 be 7c a0 bd 82 8c 2d bd 97 0f c4 3d 34 f3 bf bc
       -0.07836293 -0.042370327 0.09573286 -0.023431398
000180 c0 07 12 3d 12 81 0d 3d 42 b4 91 3d cc c2 5d 3d
       0.035651922 0.03454692 0.071144596 0.05414085
000190 17 23 90 bd d8 d5 4d be d5 2d 34 be 33 14 e9 bd
       -0.07037943 -0.20101106 -0.17595609 -0.11380806
0001a0 00 8d 45 bd b9 5a 20 be 80 5d a3 be 5b 93 5c be
       -0.04823017 -0.15659608 -0.31907272 -0.21540587
0001b0 b9 8b 8b bd 00 dd 60 bd cd 1c 92 be 49 73 0c be
       -0.06813759 -0.054898262 -0.28537598 -0.13715853
0001c0 0e 7f 0b 3a 25 bb 37 bb 9a 5a bc bb f9 e0 67 be
       0.0005321362 -0.002803513 -0.0057481052 -0.22644414
0001d0 20 18 2d bd 85 49 12 3e 20 5b 09 3d 9d d9 78 bd
       -0.042259336 0.14285858 0.03353417 -0.060754407
0001e0 35 a7 bd bd 0f 17 c4 3c 65 c4 43 3e e8 13 22 3d
       -0.09260408 0.023936776 0.19117887 0.039569765
0001f0 dc f0 c6 bd 72 3a 10 3d 7d 9c 43 3d fe a6 cb 3b
       -0.09713909 0.035211988 0.04775666 0.0062149754
000200 20 de 54 bd c7 aa 29 bd 0a 92 2d bd fa a4 94 3c
       -0.051969647 -0.04142263 -0.0423756 0.018145073
000210 47 e9 12 3d 65 72 58 3d 14 23 10 3e e1 48 60 bb
       0.035867 0.05284347 0.14075881 -0.0034223127
000220 88 8a 0a 3e 1b 9a cf 3d 46 62 4a 3e 99 54 c9 3d
       0.13529408 0.10136815 0.19764051 0.09830589
000230 5b 0b c5 bc 32 db 14 3e e0 5e 15 3e ee 52 d1 b8
       -0.024053266 0.14536741 0.14586973 -9.9813435e-05
000240 53 52 09 bd 9b f1 21 3d e8 68 01 3e 9c 5a e9 bc
       -0.033525776 0.039537054 0.12637675 -0.028485589
000250 fa 49 6b bd b2 7a ee bd 9d 30 3b bc b5 4f 56 3c
       -0.057443596 -0.11644496 -0.0114251645 0.013080527
000260 b0 a7 1a 3d d1 de 85 bc ce 6e 4a 3d 78 65 a6 3c
       0.037757576 -0.016341599 0.049422078 0.020312056
000270 87 e1 1d bd 00 3e ea 3d c2 05 e9 3c 3c 2f fb 3c
       -0.038545158 0.11437607 0.028445128 0.030662172
000280 36 6c 6a bd 3a 59 b5 3d 3d b9 13 3d a0 20 90 3d
       -0.057232104 0.08854909 0.03606533 0.07037473
000290 9e 11 10 bc 53 7e 0f 3c 55 a6 60 bc 7d 3d 7a bd
       -0.008793263 0.008758145 -0.013711532 -0.061093796
0002a0 ef ea 8b bd 36 fd ce bd 32 0c be 3c 2d 8f c9 3c
       -0.068319194 -0.1010689 0.023199175 0.024604404
0002b0 95 44 93 bc 5b b4 20 bd b1 02 05 bd 99 bf 0f be
       -0.017977038 -0.0392345 -0.03247327 -0.14037932
0002c0 7b f7 b0 3a de f0 fb bc b6 ce 52 bd 7d 24 8a 3c
       0.0013501489 -0.030754503 -0.051466666 0.016863102
0002d0 4d c9 f8 bd 32 c1 4d 3d 93 3f 45 bd 87 46 ab 3d
       -0.1214777 0.050233074 -0.048156332 0.083630614
0002e0 57 be 74 3d fe 13 95 bd 9a c7 65 bd 53 43 4d bc
       0.059751835 -0.07279204 -0.056098558 -0.012528258
0002f0 32 44 00 be b0 60 e3 bd 9e 5f 51 bd bc 47 be bd
       -0.12526014 -0.11102426 -0.05111658 -0.09291026
000300 fd 3b b9 bd da 2e 8c bd ff 5f 0f 3d 64 84 e2 bb
       -0.09044645 -0.06844874 0.03500366 -0.006912755
000310 77 16 29 be 54 77 56 bd b4 ad 9a 3d ab fd 80 bb
       -0.16512476 -0.052359894 0.075526625 -0.0039364896
000320 e0 e7 f1 bc 04 c2 a1 bd 4f 0d ab 3b 30 92 11 bd
       -0.029529512 -0.07898334 0.0052200924 -0.035539806
000330 ae f5 35 bc 43 33 db bc 24 1f e7 bd 3d b7 18 bd
       -0.011105938 -0.026757842 -0.112852365 -0.037284125
000340 11 95 97 bc ae ea a3 3c 78 68 a8 bc a8 37 94 bd
       -0.018503698 0.020009365 -0.020557627 -0.07237178
000350 e0 c1 30 3d dd c6 90 3d c0 c4 ae 3d a5 6f 6c 3d
       0.043153644 0.0706918 0.08533621 0.05772366
000360 b7 f4 c7 bd c6 0a a6 bb 7d 4e 1a 3d ff a0 3d 3b
       -0.097634725 -0.0050672023 0.03767251 0.0028935072
000370 61 88 d5 3c 70 75 46 bd 3c c5 a8 bc fc cb 44 3d
       0.026066007 -0.04845184 -0.020601861 0.048046097
000380 b0 62 19 3d 56 54 5b 3d 2c ec 94 bc 57 23 02 3e
       0.03744763 0.053547226 -0.018179022 0.12708794
000390 df 8f df 3a 1d 52 28 bc cc 60 a2 3c 18 79 f3 bd
       0.0017056427 -0.010273484 0.019821547 -0.11888331
0003a0 29 9f fd bc eb 9c e6 bd 92 55 03 bd 13 51 b2 bc
       -0.030959683 -0.112603985 -0.032064028 -0.021767175
0003b0 9b d2 28 3d 60 d5 19 bd a2 63 82 bd 3d d3 c8 bc
       0.041216474 -0.037557006 -0.0636666 -0.024514789
0003c0 0b 6c b0 bd fc f0 6c bc 6c 08 d9 bd 56 a8 06 be
       -0.086143576 -0.014461752 -0.105973095 -0.13150153
0003d0 0a 7c 56 b9 1d 9e e2 bd 86 2d b0 3c eb 0b e6 bc
       -0.00020454839 -0.11065314 0.021506082 -0.028081855
0003e0 12 7d 08 3e 5c 20 2f 3d d1 f2 8e 3c c5 43 9d 3d
       0.1332896 0.04275547 0.017449768 0.07678942
0003f0 1a 79 4f bd 90 3c c3 3a c2 f7 81 3d 9f c6 74 bd
       -0.0506526 0.0014895368 0.06346084 -0.059759732

conv2.bias f4 [20]
000000 41 3b 67 3d 67 04 39 bc fe f9 af 3d 7a c1 35 bd
       0.056452993 -0.0112925535 0.08592604 -0.044373967
000010 a1 42 4f 3d 66 36 7c bd a0 c0 36 bd 97 f4 ea bb
       0.05060065 -0.061575316 -0.044617295 -0.0071702707
000020 c0 65 aa bd d1 59 48 bd 67 08 cd 3b 0c ae 7b bd
       -0.083201885 -0.04891378 0.006257105 -0.06144528
000030 68 eb 3b bd f5 b0 3e 3d 14 eb 39 bc 93 f4 90 bd
       -0.045878798 0.046555478 -0.011347551 -0.07077899
000040 2b 76 96 bd 9b f3 96 bd 24 d2 00 bd 6e 2e 91 3d
       -0.073467575 -0.07370683 -0.031450406 0.07088934

fc1.weight f4 [50, 320]
000000 07 a6 35 bd eb b0 81 bb 4b 7d 77 3d c5 70 06 3e
       -0.04434779 -0.003957858 0.060422223 0.13128956
000010 bf 9a 0b 3d 97 26 26 bd 68 aa a7 bd 17 da 53 3d
       0.034083124 -0.040564146 -0.08186799 0.05172166
000020 73 09 6d bc db 13 75 bc 9d c9 9e bd 99 63 25 3d
       -0.014467585 -0.014958347 -0.077532984 0.040378187
000030 86 30 06 3e 59 66 5f 3d d1 9e e1 3c dd bf 23 3d
       0.13104448 0.054540966 0.02754155 0.039977897
000040 69 ae ea bc 94 b9 1f 3d 75 ad 5c bd ec 0d ff bb
       -0.028647618 0.03899534 -0.05387636 -0.007783642
000050 84 03 80 3d ce 98 ed 3b 2c 36 87 bd 1a 07 6b bc
       0.062506706 0.0072508818 -0.06602129 -0.014344955
000060 9c 4c d2 3d 82 64 ef bd 6c cc e3 3b 6a a8 eb 3c
       0.10268518 -0.11689092 0.006951859 0.02876683
000070 fc ee 5c 3d 0b 3a a0 bd 85 9c 36 bd 14 2a 4e bd
       0.05393885 -0.07823571 -0.044582862 -0.050333098
000080 f2 30 81 3b 5c d2 ff bc c7 62 86 bd 93 cb 87 bd
       0.0039426023 -0.031228237 -0.06561809 -0.066306256
000090 4b 89 96 3c b3 d8 44 3d b5 cd 89 ba 71 1b 93 bc
       0.018376013 0.048058223 -0.0010513576 -0.017957421
0000a0 08 57 88 3d 0a 67 77 bd 2e f2 53 bd 27 63 3a 3d
       0.06657225 -0.060401 -0.051744632 0.045504715
0000b0 40 5b c8 3c 1a de 57 bd d1 75 7b bc 53 58 90 bd
       0.024457574 -0.052702047 -0.015347914 -0.070480965
0000c0 2c b1 87 bb b2 38 3d 3d 08 81 92 3d f3 6e ac 3d
       -0.0041409936 0.046196647 0.07153517 0.084195994
0000d0 6e 3d e0 bc 8b aa 59 3c 43 43 c9 bd 33 e6 ac bd
       -0.027373042 0.0132852895 -0.09827282 -0.084423445
0000e0 2a 01 c8 bd b3 e5 f0 bc a0 04 08 be 01 fe 01 be
       -0.09765847 -0.029406404 -0.13283014 -0.12694551
0000f0 db c1 52 be 73 c4 01 be 94 45 10 be a9 0b ea bd
       -0.20581762 -0.12672596 -0.14089042 -0.11428005
000100 e4 0c 68 bd df 82 12 3c db d7 9b bc 78 ed fd bc
       -0.05665292 0.008942335 -0.019023826 -0.030997023
000110 22 98 a4 3d fb 3a a5 3d c0 52 2e 3d 81 96 3e 3d
       0.080368295 0.0806789 0.042559385 0.04653025
000120 b2 03 82 bd ff 1f 34 bd 2f 5a a2 3c b3 37 78 3d
       -0.06348361 -0.043975826 0.019818394 0.060599994
000130 cc e8 b6 bd 8d dd 1c 3d d6 52 ad 3d c7 b6 31 bd
       -0.08931121 0.038297225 0.08463065 -0.0433872
000140 61 22 45 bd f9 c4 e4 3c 37 6e 4c 3c 6b 3c e2 3d
       -0.04812849 0.027925955 0.012477449 0.1104668
000150 21 8c 4d bd db 96 08 3c f2 7a 92 bd ff 50 77 3c
       -0.050182465 0.008336748 -0.07152356 0.015094995
000160 b9 9a 96 3c 8a ee d3 bb 5f 7a 69 bc 1f 48 11 3a
       0.018384324 -0.006467645 -0.014250367 0.0005542058
000170 95 d7 fc bc ae da d1 bb fa 32 d5 3c 3b 15 0a bd
       -0.030864516 -0.0064042425 0.026025284 -0.033711653
000180 f5 54 c3 bc 38 8a 89 bc 34 b8 b0 3d 84 6f a9 3c
       -0.023844222 -0.01678954 0.08628884 0.020683058
000190 e4 58 c3 3b 7c db b5 3c 80 bd a2 bc 4f bc ac 3d
       0.0059615243 0.022199385 -0.019865751 0.084343545
0001a0 6e b4 48 3b ba 04 7b bd 91 86 8c 3d 65 37 92 3d
       0.0030625123 -0.061283804 0.06861604 0.07139472
0001b0 5c fd 8e 3d fc 55 2f 3d 67 ab 45 3d dc 3a 37 3d
       0.06981918 0.04280661 0.048259165 0.044733867
0001c0 13 d5 3e bd 52 93 e7 bd 91 c2 6c bc ce 36 69 bc
       -0.046589922 -0.11307396 -0.014450685 -0.014234258
0001d0 09 e9 55 bd af a7 a6 bd d4 0c 99 bc fa 45 50 3d
       -0.052224193 -0.08137452 -0.018682875 0.050847985
0001e0 d4 92 6a 3d a9 17 f2 bc a8 36 42 3c bd 48 9b 3d
       0.057268932 -0.029552298 0.011853851 0.07582233
0001f0 30 8c 00 bd 1a b4 8f bd e7 6b 6a 3d 92 9e 27 bd
       -0.031383693 -0.070167735 0.05723181 -0.04092271
000200 90 50 bc 3a c8 5a 49 bc 6e ef c7 bc 89 cf 8d bd
       0.0014367271 -0.01228971 -0.024406161 -0.0692435
000210 a5 17 6e bc bb 64 bc 3d a8 27 16 3d 7a 9e 1d bd
       -0.0145320045 0.091989 0.036658913 -0.038481213
000220 56 ba 68 3d bd 2a 88 3d 34 1a 56 bc 33 60 d2 3b
       0.05681833 0.06648777 -0.013067771 0.0064201592
000230 51 11 d4 bc 93 49 e9 bc e9 09 09 bd 39 19 a9 3c
       -0.025887163 -0.028477466 -0.033456717 0.02064191
000240 97 20 29 bd 70 13 98 3c 60 92 e8 bc 57 d3 c1 3c
       -0.041290846 0.018563956 -0.02839011 0.023660345
000250 5a b5 89 3d 9a 4a f5 bc ea 26 1a 3d 0a 63 cc bc
       0.06724043 -0.0299428 0.037634768 -0.02494957
000260 4f d1 b6 3c a4 a4 9c 3d ff 1a 67 bd 69 70 d4 3c
       0.022316603 0.0764859 -0.05642223 0.025932508
000270 72 7d 9a 3d a9 9a ed 3d d1 16 e2 3c 6a 4e a9 3c
       0.07543458 0.11601765 0.02759877 0.020667274
000280 5e b2 11 bd 41 d5 7d bc 34 57 17 bd 31 27 48 bc
       -0.035570495 -0.015492738 -0.036948398 -0.012216375
000290 a0 de 87 3d 64 2c 02 3c 28 58 d4 3d ff 23 88 bc
       0.06634259 0.007945154 0.10368377 -0.016618727
0002a0 f1 7a bb bd 66 1d 2f 3d 28 ba 37 bc eb df 8c 3d
       -0.091543086 0.042752646 -0.011213817 0.068786465
0002b0 0f 22 84 bd 86 45 a9 3d fb 13 c6 3d 00 88 51 bd
       -0.06451809 0.08265214 0.0967178 -0.05115509
0002c0 28 d7 bb bd e5 14 bb bc d0 9f da bc 62 0e d4 3c
       -0.09171897 -0.022837112 -0.026687533 0.025885765
0002d0 e5 dd 04 bd 63 44 1e 3d 81 6b f0 bc 93 b8 c3 3c
       -0.032438178 0.038639437 -0.029348137 0.023891723
0002e0 66 11 0b 3d 0e 07 72 bc a3 72 30 bd 69 62 41 3d
       0.03395214 -0.01477219 -0.043078076 0.047212992
0002f0 59 39 25 3d 2f e0 66 3d 0f a7 a4 3c fa d7 a7 3d
       0.040337894 0.056366142 0.020099191 0.08195491
000300 a3 d4 43 3a 86 d0 7d 3c 1f fb 03 3d 3a d2 d9 3b
       0.0007470345 0.01549161 0.03222191 0.0066473754
000310 09 46 89 bc 65 52 27 3c 8b 48 47 3b 65 62 b2 bd
       -0.016757028 0.0102125155 0.003040823 -0.087101735
000320 21 92 4e 3d 1c 6b 8f bd 8f 1b 85 bd 20 ae c0 bd
       0.050432328 -0.07002851 -0.06499397 -0.09408212
000330 bc 28 10 bd 04 10 15 bd 6c 54 82 bd 07 e3 fd bd
       -0.035195097 -0.036392227 -0.063637584 -0.12396818
000340 16 e6 12 3d 78 18 b3 3d 5a 4e ba 3b 56 de 55 bc
       0.03586396 0.087449014 0.0056856098 -0.013053497
000350 00 36 08 3c bc 08 76 bd 9a 22 fa 3b 17 b3 9b bd
       0.008313656 -0.060066923 0.0076335194 -0.07602518
000360 70 01 6e bd 47 6e 17 3a f6 39 ac 3d 7a 0e 8e bd
       -0.05810684 0.00057766255 0.08409493 -0.06936355
000370 54 79 12 bc d3 a1 5c bd 6d 3e ef 3c 8a 4b a2 bd
       -0.00894006 -0.053865265 0.029204572 -0.07924564
000380 6a 3d 89 3c f4 7c 56 3d 94 5f 15 3b 29 db 02 3c
       0.016752917 0.05236526 0.0022792565 0.007986822
000390 6b d3 23 3d 73 49 6b 3d 08 7a fd bc 94 9f 47 3d
       0.039996546 0.057443094 -0.030941978 0.04873617
0003a0 6b 5e 24 bd b3 ca 56 3d d0 aa 4d 3d a7 0a 9b bc
       -0.040129106 0.052439403 0.050211728 -0.018925978
0003b0 4f 09 81 3c c0 c3 53 3d 79 b4 21 3d 07 d4 97 3c
       0.015751509 0.051700354 0.039478753 0.01853372
0003c0 87 60 9e bd 7b 36 2a bd 49 c6 39 bd 65 e7 c6 bd
       -0.07733255 -0.041555863 -0.045355115 -0.09712104
0003d0 50 a5 23 bd 80 fe 07 bc 3d a4 5d bc 13 c2 bc 3d
       -0.039952576 -0.008300424 -0.013527927 0.09216704
0003e0 8d 8c 6c 3d eb 00 7e 3d 67 38 2e 3d 3a f6 c4 bc
       0.057751227 0.062012594 0.04253426 -0.024043191
0003f0 02 a8 22 3d 53 40 60 3c 73 62 aa 3c ac 4a 8f bd
       0.039711006 0.013687211 0.020798897 -0.069966644

fc1.bias f4 [50]
000000 1e fb 34 bc 76 2a ba 3c c5 05 0d 3d b6 e6 1f 3e
       -0.011046199 0.022725325 0.03442933 0.15615353
000010 52 bd 40 3e 04 44 8d bd 7c c1 62 bd 34 43 cd bc
       0.1882222 -0.068977386 -0.055360302 -0.025056459
000020 a6 12 1c bd 16 bc 90 3e 4f c8 82 3b c8 30 77 3d
       -0.038103722 0.28268498 0.003991164 0.060349256
000030 1f 33 e3 bc bc 95 46 3d da f3 84 bc 8d 71 cb bd
       -0.027734337 0.04848264 -0.016229559 -0.099337675
000040 02 cc de 3c b6 77 36 bd f3 e7 54 bc 87 f5 0b 3d
       0.027196888 -0.04454776 -0.012994754 0.0341697
000050 ae 2a c0 3d bc 30 00 3e ae 0b 73 bd a8 d6 2c bd
       0.093831405 0.1251859 -0.05933731 -0.0421969
000060 50 a6 9f 3d bf 5f 83 bd ac 98 38 bc 91 b7 9c 3d
       0.077953935 -0.064147465 -0.011266869 0.076522
000070 6d 0c 5d bc 51 5d 19 3c 1b 2e b6 3c fe 36 48 3d
       -0.013491732 0.009360627 0.022238782 0.04888057
000080 c6 3e 06 3d 0e 9a ee 3b c6 bb 81 bd c1 7a cd 3c
       0.03277471 0.0072815483 -0.06334643 0.025082948
000090 d5 ad 80 3d 8f ce 07 3c f8 cd 99 bc 91 ca b0 3c
       0.06283156 0.0082889935 -0.018774971 0.021580966
0000a0 f3 d8 fe bc bb 01 c7 bb e5 e7 2c 3c 5b c9 f8 bc
       -0.031109309 -0.0060732043 0.010553335 -0.030369451
0000b0 12 8a e8 3a ec 55 f6 3c db db a2 3d 8f 2d 0f bc
       0.0017741343 0.030070268 0.0795209 -0.008738889
0000c0 a5 b2 1e bc 6d 3f 15 3c
       -0.009686147 0.00910936

fc2.weight f4 [16, 50]
000000 4d 41 40 3e 36 6c 27 be 29 76 4c 3e e4 6c 26 3e
       0.1877491 -0.16349873 0.1996695 0.16252476
000010 76 7b 3b be 55 9d 7e bd 6e 95 ff bd 7f ff 5d b9
       -0.18308815 -0.062161762 -0.12479673 -0.00021171382
000020 ba 77 72 bd dd b4 cb be fe 34 24 be 24 be 66 be
       -0.05919621 -0.39786425 -0.1603584 -0.2253347
000030 fb e5 a5 bd c2 d3 60 3e ec 71 96 3e f8 c4 58 3e
       -0.08100506 0.21955779 0.2938379 0.21168888
000040 c0 21 63 3e 0d b1 7c 3e 1f 47 7d 3e 60 a0 20 be
       0.22180843 0.24676915 0.24734162 -0.15686178
000050 5a 97 95 bd 17 68 75 be 91 8b 04 be 24 db 97 be
       -0.07304259 -0.23965488 -0.12943865 -0.2965938
000060 9f dc 49 be 64 dd 7f be 93 c8 68 be ae 2b 53 be
       -0.19713067 -0.24986798 -0.22732763 -0.20622131
000070 e1 78 1c bc d7 a1 84 3e 98 ab 3b be d7 ef 8d bd
       -0.009550304 0.25904724 -0.18327177 -0.069305114
000080 4e ba 76 3e d6 35 45 3e 7f bf eb bd 7f 71 8e 3e
       0.24094507 0.19258818 -0.11511134 0.27820966
000090 5b e8 01 3e b2 1b 81 bd e9 97 3f 3e 0f 6f 44 be
       0.12686293 -0.063041106 0.18710293 -0.1918299
0000a0 a2 1e 9a bd 2f a2 53 be d0 28 b3 3e 2e 08 e7 bd
       -0.07525374 -0.20667337 0.34992075 -0.11280857
0000b0 82 dd 09 3e 6e 34 1d 3e 03 00 63 be c5 13 39 bd
       0.13463405 0.15352032 -0.22167973 -0.04518487
0000c0 bf 3c 9c 3e c0 7d 73 3e 6f 86 8d 3e 12 14 84 3e
       0.30515096 0.23778439 0.27641627 0.25796562
0000d0 88 c5 00 be 21 57 ca bd 8d 62 1d 3e 11 11 59 3e
       -0.12575352 -0.098799 0.15369625 0.21197917
0000e0 08 45 3c be 6c 10 02 3d 9f 36 7e 3e b4 aa b5 be
       -0.18385708 0.031753942 0.24825524 -0.354818
0000f0 4f 83 78 3e f9 28 a4 3e 04 3f 4a be 99 f6 d6 bd
       0.2426884 0.3206251 -0.19750601 -0.104962535
000100 fe 86 bd bd 78 ae 8b be e3 b8 65 3e 43 a6 57 3e
       -0.09254263 -0.27281547 0.2243381 0.21059518
000110 2a b9 6a be dc 15 93 bc 9c b8 ab be 21 b4 0b 3c
       -0.22922197 -0.01795476 -0.33539283 0.008526833
000120 ba cc 63 3e c2 68 06 3e 13 9c a2 3d 57 2b 80 be
       0.22246066 0.131259 0.07939925 -0.25033066
000130 e1 69 97 be a4 3b 9d 3e ff ce 84 3e 14 6d 73 3c
       -0.29572967 0.30709565 0.25939175 0.014857549
000140 51 bd 4d 3e 05 8a 5c be c1 12 f9 bd be c2 07 be
       0.2009175 -0.21537025 -0.1216178 -0.13257882
000150 9c 2f 6d 3e 16 f6 60 3e 7d 73 19 be 0b 73 8a be
       0.23162693 0.21968874 -0.14985462 -0.27040896
000160 41 ea 48 3e 75 ec 5f 3d 42 4c 12 be 26 db 57 3e
       0.19620611 0.054668862 -0.14286903 0.21079692
000170 a6 72 f4 bd 68 a7 36 be 14 6c 77 3e 56 0a 75 be
       -0.1193593 -0.17837298 0.24162322 -0.23929724
000180 bb 37 96 be 78 fd b4 3e 2a fc 83 be fa 88 2b be
       -0.29339394 0.3534963 -0.25778323 -0.16751471
000190 9f b6 f4 bd 59 f8 1e be a4 c5 12 3e 96 b9 23 3e
       -0.11948895 -0.15524425 0.14333206 0.15988764
0001a0 b2 da 54 be c7 a4 52 3e 04 c3 5d 3e 63 c4 0b be
       -0.2078655 0.2057067 0.21656424 -0.13649134
0001b0 1e 40 69 3e de dd b0 3d 3a 9d 1e be 06 b3 8b 3e
       0.22778365 0.08636068 -0.15489665 0.27285022
0001c0 bb 36 59 3e b3 3b 7b 3e f3 86 8e 3e a8 15 43 3e
       0.21212284 0.24534492 0.27837333 0.1905123
0001d0 93 5b e8 3c be 65 89 3d 67 29 29 be 2f 0f 87 be
       0.028363978 0.06708859 -0.165197 -0.26378772
0001e0 4b eb c3 bd dc 68 48 3e 1f 36 1b be f0 95 81 bd
       -0.09566363 0.1957125 -0.15157364 -0.063274264
0001f0 39 dc 34 bc e9 d2 de bd 1e 28 3f be b5 de a7 bd
       -0.011038833 -0.10880072 -0.18667647 -0.08196775
000200 39 aa 4b bd 63 b2 ce 3d 54 d4 06 be 2d 7d c2 bd
       -0.049722884 0.10092618 -0.13166934 -0.09496532
000210 55 e9 60 bd 51 c2 73 bd d2 5c 8a 3e e3 16 74 3e
       -0.054910023 -0.059511486 0.2702394 0.23836856
000220 e3 82 c9 bd 4a 73 b0 bd 8b e6 2f 3e 31 95 f9 bc
       -0.09839418 -0.0861574 0.17177789 -0.030466648
000230 49 42 8b 3e bc 8a 5e 3e 38 50 9d bd 4e 9d 71 3d
       0.2719901 0.2173261 -0.07681316 0.058987908
000240 38 be 69 3e 25 1a 2d 3e 24 ab 32 be 8b 8a a3 3e
       0.22826469 0.16904505 -0.17448097 0.31941637
000250 c4 72 08 be 49 be 65 3e 4f ab 16 bd fc 30 77 3e
       -0.1332503 0.2243587 -0.036784466 0.2413978
000260 b6 12 64 3e 16 3b 30 be e6 58 4c be 3e 5c 68 be
       0.22272763 -0.1721004 -0.19955787 -0.22691438
000270 dc dc 25 3e db 8b 6a 3e 3e a7 43 3d b4 7b d0 3d
       0.16197532 0.22904913 0.047766916 0.101798445
000280 8e 25 07 be f8 eb 84 3e 51 9a 25 be c8 c0 eb bd
       -0.1319792 0.2596128 -0.16172148 -0.115113795
000290 06 b9 80 3e 31 5e b7 3b fb af e2 bd a5 ec ac bc
       0.25141162 0.0055959453 -0.11068722 -0.021108935
0002a0 e6 06 a1 bd 06 19 91 3e 75 48 54 3e 61 05 35 3e
       -0.07862644 0.28339404 0.20730765 0.17677833
0002b0 48 2c 2b 3e 14 d7 4e 3e 2a 55 99 be 65 6f fc bd
       0.1671611 0.20199233 -0.29947788 -0.12325934
0002c0 47 54 43 3e c1 e5 7f be f8 03 71 3e 49 a4 87 bd
       0.19075118 -0.24989988 0.2353667 -0.06623132
0002d0 72 2e 7a be 99 34 62 3e 03 08 5e be 4f ec 83 3e
       -0.2443178 0.22090377 -0.21682744 0.25766227
0002e0 c5 30 85 3e 80 ea a4 3d a6 d4 4e 3e ef 39 6c bc
       0.2601377 0.0805254 0.20198306 -0.014418109
0002f0 c9 4f 73 be d5 5d 80 3c b2 e2 39 3e 99 a8 58 3e
       -0.23760904 0.015669743 0.18152884 0.21158065
000300 17 4f c7 3c f7 b2 12 3e 75 0c 2a 3e 90 04 33 3d
       0.024329705 0.14326082 0.16606314 0.043705523
000310 f1 90 89 bc df b4 aa bd 9b 81 0b bd 20 22 71 3e
       -0.016792746 -0.0833528 -0.03405915 0.23548174
000320 2b a9 75 3e 13 f3 98 3c 82 89 71 bd 34 46 b2 3d
       0.23990314 0.018670594 -0.05896903 0.087047964
000330 9d 70 5a 3e 5d 9d 41 3e a2 06 5d 3e 7b 8a 44 3c
       0.21332021 0.18907686 0.21584561 0.011995907
000340 80 ed f9 bb 5f 08 22 be 43 e4 89 3e 66 65 da bd
       -0.007627189 -0.15823506 0.26931962 -0.106638715
000350 b8 ef 7c 3e ef df 0f be d6 fe fa bd 57 7f 6f 3e
       0.2470082 -0.14050268 -0.12255637 0.2338842
000360 47 bf f4 bd 3f 84 1c be 73 bf 31 bd 0c cb 44 be
       -0.11950546 -0.15284823 -0.04339547 -0.19218081
000370 16 86 a8 bd 43 89 52 be fd 4b 7d 3e 21 d6 87 3e
       -0.082287 -0.20560174 0.24736018 0.26530555
000380 f4 7c 38 3e 82 2b 8c 3e 85 1e 43 3e cd d7 05 3d
       0.18016416 0.27376944 0.19054611 0.032676507
000390 59 ab 82 3e ec 07 fc bd 95 88 f4 3d 4d ff 80 3e
       0.25521353 -0.123061985 0.119401135 0.2519478
0003a0 08 77 5c be b6 a5 73 be 39 dd 20 be b2 90 ea bd
       -0.21529782 -0.23793682 -0.1570939 -0.1145338
0003b0 a3 2a 80 be 3b 50 82 3e 22 e9 47 3e 88 43 0c bd
       -0.2503253 0.25451836 0.19522527 -0.03424409
0003c0 c5 b0 49 be f3 45 13 bd b1 91 9f bc 16 1b 54 3c
       -0.19696338 -0.03595538 -0.01947865 0.012945911
0003d0 1f f0 f0 bd f5 2a 1e 3e 92 7d f4 bd 5d a3 51 be
       -0.117645495 0.15446074 -0.11938013 -0.20472474
0003e0 ae 43 97 3e 2d d0 21 be 94 8d be 3c 4e b0 b4 bd
       0.29543823 -0.15802069 0.02326087 -0.0882269
0003f0 f0 5c 95 bc 0b 38 73 be 72 ef fe bd 35 95 cc bd
       -0.018232793 -0.23751847 -0.12448014 -0.099893965

fc2.bias f4 [16]
000000 08 c9 10 be 58 1c 2e be 40 e2 08 be 87 6f 47 bc
       -0.14139187 -0.17003 -0.13367558 -0.012172586
000010 fd 05 2d be 1a 34 ed 3d d6 ed 8e be 52 d9 c6 be
       -0.16896816 0.11582203 -0.2791583 -0.38837677
000020 8a c9 2b be e0 30 81 be 17 14 bd 3d 3e 2f ac 3e
       -0.167761 -0.252326 0.092323475 0.33629793
000030 99 25 eb bb 7b 41 a6 bd 73 86 ad 3e e4 0a 1e 3f
       -0.007176113 -0.08117958 0.3389164 0.6173537
