model.pth (torch, 91825 bytes, 8 tensors)

conv1.weight f4 [10, 1, 5, 5]
000000 1d 4c 60 3d 9e 56 34 be 9a d7 84 be 06 7b 42 be
       0.054760087 -0.17611167 -0.2594574 -0.18992242
000010 b9 c7 96 be 6e 60 46 3e c8 97 93 3d 9d fe 9e 3d
       -0.2944925 0.19372723 0.07206684 0.077634074
000020 11 e4 92 3c e4 20 23 bd 37 cf 2c 3e 40 38 96 3e
       0.017931016 -0.03982629 0.16875921 0.2933979
000030 19 ad a9 3e 12 de 29 3e 6d fa 9c 3d 83 50 88 bd
       0.33139876 0.1658862 0.076649524 -0.066559814
000040 97 70 13 3e 79 3a 14 3e d2 26 9e 3e 83 b6 25 3e
       0.14398418 0.1447543 0.30888993 0.16182904
000050 e4 4b 88 be b9 d4 9f be 7f 9b 7d be 9a 7b 5d be
       -0.266204 -0.31216982 -0.24766348 -0.21629182
000060 e5 9b a3 bd 82 39 20 3e 4b 8b b2 3e cc 97 cd 3d
       -0.07988719 0.15646937 0.34871897 0.100387186
000070 03 21 d8 be 9f 40 48 be 26 0f 84 3e 9a 50 d8 3e
       -0.42212686 -0.19555901 0.25792807 0.42248994
000080 b1 b7 dc 3d 12 89 d2 be dc f2 cc be d1 59 4a 3e
       0.10777224 -0.411202 -0.40029037 0.19760825
000090 df 45 ea 3e be 2a d7 bd 70 6b 58 be 2e fb a8 be
       0.45756432 -0.10506199 -0.21134734 -0.33004135
0000a0 28 15 d6 3e 07 72 df 3d 5a 8e 92 3d a9 67 7f be
       0.41813016 0.10910421 0.07156058 -0.24941887
0000b0 f6 b0 8d be 5d 3f a7 3e 97 55 dc 3d 25 12 86 3d
       -0.27674073 0.3266553 0.107585125 0.065464295
0000c0 59 5b 63 be 95 3a 0d be 7e a6 ba be ec 2d 46 be
       -0.22202815 -0.13791879 -0.36455148 -0.19353455
0000d0 e3 74 b5 3d 32 b2 92 3d 33 c6 b6 3e e6 da 84 3c
       0.08860185 0.07162894 0.3569809 0.01621766
0000e0 50 00 71 3c 8a 59 bf 3d 7b f5 d2 3e 6f b0 57 3e
       0.014709547 0.0934325 0.41202912 0.21063398
0000f0 6a 31 ed bd 6f 6f 93 3e 19 bb e0 3e 6f 7f d9 3e
       -0.115816906 0.28795955 0.43892744 0.42480037
000100 e9 26 41 be 38 3e 9e 3d 55 34 21 3e be 0e 2b 3e
       -0.188625 0.07726711 0.1574262 0.16704842
000110 64 d7 3e be d7 80 ca be 27 57 0c 3e 98 b9 25 bd
       -0.18636853 -0.39551422 0.13705121 -0.0404602
000120 2e de 37 bc 0f 10 52 be 67 ab 50 be 10 ad 09 3e
       -0.011222405 -0.20513938 -0.20377885 0.13444924
000130 4f d1 8f 3e 60 ee 8e 3e 15 6e d0 bd 8a 70 1c 3e
       0.28089377 0.2791624 -0.101772465 0.15277305
000140 16 ca 52 be 82 0a f5 bd 73 87 8f 3d 1d 10 1d 3d
       -0.20584902 -0.11964895 0.07008257 0.038345445
000150 34 90 5f 3e d4 8e 7b be 21 73 89 be 46 06 de 3d
       0.21832353 -0.24566203 -0.2684565 0.1084104
000160 0b 68 b1 3c 49 49 43 3e aa 01 70 3c fc 99 59 be
       0.021656057 0.19070925 0.014648834 -0.21250147
000170 cd 1f 83 bc 89 2b 1e 3d fe 4d 0e be b7 e9 22 bd
       -0.016006375 0.038615737 -0.13896939 -0.03977367
000180 97 55 86 3d e3 0c 77 bd 38 cd 39 be 6a f8 fe bd
       0.06559294 -0.060315024 -0.18144691 -0.12449725
000190 ff c8 96 3e 8c 1f 42 3d 30 ee 1e 3e a7 4e b5 3c
       0.29450223 0.047393367 0.15520549 0.02213223
0001a0 f2 aa 98 be 9a f3 e2 bd a7 f8 bb 3e ae f9 09 3e
       -0.2981792 -0.110816196 0.36713144 0.13474151
0001b0 6d 2f b5 3d af 43 83 bd 7b 5d 41 3e 78 57 09 3f
       0.088469364 -0.06409394 0.18883316 0.5364909
0001c0 e2 cf d4 3e c3 c5 d9 bd d2 68 69 3d cf 95 85 3e
       0.41564852 -0.10633423 0.05698473 0.26090857
0001d0 70 64 f3 3e 34 3c be 3e cf 38 15 3d bd 72 9d 3d
       0.47537565 0.37155306 0.03643113 0.076879
0001e0 9a 5e 52 be 33 a0 8e 3d c5 4e af 3e 10 1f 8b 3d
       -0.205439 0.06964149 0.34239784 0.06793034
0001f0 7c b3 c0 3e b9 a6 ab be 75 89 d5 be d5 f3 23 be
       0.37636936 -0.33525637 -0.41706434 -0.16010983
000200 82 3b 68 3e 08 5d cd 3e 44 59 9f be 45 3e b6 bc
       0.2267895 0.4011004 -0.31122792 -0.02224649
000210 42 cc 83 3e f0 d7 be 3e f2 74 8f 3e 30 26 9c 3d
       0.25741774 0.37274122 0.2801891 0.07624471
000220 36 0b 0b 3e 22 84 ff 3d 50 2a e1 3b 09 7c 0d be
       0.13578495 0.12476374 0.006871499 -0.13816847
000230 b7 c5 a2 bd ab 61 e0 bc eb 1b e0 bd 63 a1 18 3e
       -0.07947867 -0.027390322 -0.10942825 0.14905314
000240 c1 ec f2 3d b6 08 16 bc a0 9c a2 3d cb ff bd 3d
       0.118615635 -0.00915735 0.0794003 0.09277304
000250 fd 08 3f 3e 42 37 3b 3e 63 0e c7 bd ea 25 05 3e
       0.18655773 0.18282798 -0.09719541 0.13002744
000260 83 a7 a0 bd 2b 00 58 bd cc 1c 6c be 3b ae 4b be
       -0.0784445 -0.052734535 -0.2305786 -0.19890682
000270 e7 99 52 be 25 71 12 be 20 ba 01 3e 8b ef b8 bd
       -0.20566522 -0.14300974 0.12668657 -0.09030064
000280 11 3e 43 be d2 91 71 3d 1d 43 ae 3d 06 a2 11 3e
       -0.19066645 0.058976956 0.085088946 0.14221963
000290 a4 57 11 be 5c 44 b8 3d 22 31 fa bc 67 47 02 3c
       -0.14193588 0.089974135 -0.030541006 0.007951594
0002a0 aa 3f e6 bd 33 fd 3d bd b6 35 19 3d 38 f4 2b 3e
       -0.11242612 -0.046384048 0.03740474 0.16792381
0002b0 2a 6f 0c 3e 89 ea 55 3e bb 1e bf 3e 51 4d a5 3d
       0.1371428 0.2089025 0.37328133 0.080713876
0002c0 74 2b 86 3d 2f 29 ec bb 40 fb 68 be 3b bb dd 3d
       0.06551257 -0.007207058 -0.22752094 0.10826727
0002d0 6c 2d 39 be 25 87 3a be e3 77 c3 be 4d 8e ad be
       -0.18083733 -0.18215616 -0.38177404 -0.3389763
0002e0 30 31 c4 be 3f 09 12 3e b9 33 6e be 1d 43 89 be
       -0.38318777 0.1426134 -0.23261918 -0.26809016
0002f0 5e 65 43 be 4b cf 85 be 72 97 47 3e 9c 94 11 3e
       -0.19081637 -0.26134714 0.19491366 0.14216846
000300 77 32 0d 3e be 00 22 3e 98 fb 87 3e 9c 2e 06 bd
       0.13788782 0.15820596 0.26559138 -0.032759294
000310 4d 7f d8 3e 97 a7 0a 3f ff 64 f3 3e 89 ec 8e 3d
       0.42284623 0.5416197 0.4753799 0.06978709
000320 0a 30 4d bd 97 fa 69 be 7e 9c 28 3e d3 11 10 bd
       -0.05009464 -0.22849499 0.16465947 -0.03517325
000330 8d 18 1b 3e 22 78 3e bd 36 9a 36 bd 9a d7 d9 3c
       0.15146084 -0.046501286 -0.04458066 0.026592065
000340 2f 43 ff 3d 27 14 3c 3e 22 5d b3 3d af fe de 3d
       0.12463986 0.18367063 0.08757998 0.10888421
000350 20 92 ea bd 9e ae 8c 3e e5 a6 a4 3e 00 86 3a 3e
       -0.114536524 0.27476972 0.3215858 0.1821518
000360 95 6f 0c 3e 1a d3 20 be b3 00 47 bd 5f a3 88 3e
       0.1371444 -0.15705529 -0.04858465 0.26687142
000370 4e a8 a8 be 91 4d 42 bb 87 0e a0 be fc 87 91 be
       -0.32940906 -0.0029648284 -0.31261083 -0.2842406
000380 a6 26 10 3d d0 0b cb bd 4a c8 ae 3d bc 1a bd 3e
       0.035193108 -0.099143624 0.08534296 0.3693446
000390 3a 7d bf 3e 2a cd b1 3e b2 5c ce bd 13 91 1a be
       0.37400228 0.3472684 -0.10076274 -0.15094404
0003a0 7e 8f b4 3e d9 21 44 3e 7c 93 0f 3e 04 17 f3 bd
       0.35265726 0.19153537 0.14021105 -0.11869624
0003b0 4c 07 8a be 91 5e f6 3d 6c 3f 83 3e bf a8 a6 3c
       -0.26958692 0.12029756 0.25634325 0.020344136
0003c0 1c cf b3 be 97 e6 68 be b8 c4 2f bd ad e1 2e 3d
       -0.3511895 -0.22744213 -0.042912215 0.04269569
0003d0 d3 b0 88 bc 39 68 01 be 26 92 bf be 9b ed 9c be
       -0.016685879 -0.12637414 -0.3741619 -0.3065003
0003e0 b0 f9 34 be b0 b3 13 3e
       -0.17673373 0.14424014

conv1.bias f4 [10]
000000 e5 a4 7b 3d a9 da ff bd 3d 86 79 3d 94 3f 8c 3d
       0.061436553 -0.12492878 0.060919035 0.06848064
000010 3b ed 99 3e 6a 59 00 3d cd 9c dd 3d 75 f2 21 3d
       0.30063805 0.031335272 0.10820923 0.039537866
000020 0c 37 a3 3d 62 65 32 3d
       0.07969484 0.043553717

conv2.weight f4 [20, 10, 5, 5]
000000 1c 04 88 3c b6 72 36 bb 8d d6 dc bd 55 cc ce 3b
       0.016603522 -0.002783937 -0.1078311 0.0063109794
000010 a6 06 4f ba c3 7b 64 bd 4d 26 29 3c 17 fd bc bd
       -0.0007897414 -0.05578209 0.010324073 -0.092279606
000020 a5 c8 e5 3c a8 43 35 bd fe 01 67 bc a2 56 16 bd
       0.028049776 -0.044253975 -0.014099596 -0.036703713
000030 8f 4b 68 bd 04 3c de 3c 6a 61 1c bc ed 58 a4 bd
       -0.056712683 0.027128227 -0.00954471 -0.08024774
000040 31 58 08 be 9c 50 67 bd ea 2a c3 bc 6f 6f e9 3c
       -0.13314892 -0.05647336 -0.023824174 0.028495518
000050 e3 0d 82 bd 8e 14 09 bd 48 59 13 3d 00 3f d2 3c
       -0.06350305 -0.033466868 0.035973817 0.025664806
000060 6b bb aa bc 29 0e 48 3d 81 22 2c bc 05 ee 16 3d
       -0.020841321 0.04884163 -0.010506273 0.036848087
000070 1e e5 b5 3c cf 8b a6 bb 21 b9 c1 3d b2 3d 20 bd
       0.022203978 -0.0050825845 0.09459139 -0.039121337
000080 99 35 29 3d 88 dd a5 3d 5a 32 47 3c da b2 1d 3d
       0.04131088 0.08098894 0.012158001 0.038500644
000090 a5 48 81 bd 59 44 a6 3d 67 58 13 3d 68 78 c0 3a
       -0.06312684 0.08118505 0.03597298 0.0014684321
0000a0 7b d0 48 3d 44 8f aa 3c 2d 15 07 3e 23 4a 2c 3d
       0.049026947 0.020820267 0.13191672 0.04206289
0000b0 0b 0c d3 bb 4d 41 87 3c e2 59 b9 3d b1 6f 5c 3e
       -0.0064406446 0.01651063 0.09050347 0.21526982
0000c0 64 d9 b6 3c 43 59 34 3d 99 43 da 3c 7f 94 20 bd
       0.022320457 0.04403044 0.026643561 -0.039204117
0000d0 41 85 7a bd e4 24 a6 bc 59 ea 95 3d 09 16 e8 bd
       -0.061162237 -0.020281263 0.07320089 -0.11332328
0000e0 53 ea 97 bd 61 99 bf 3d ca 60 07 3e 38 13 eb 3d
       -0.07417741 0.093554266 0.13220516 0.11478275
0000f0 df 83 be bd 3d ab 14 3d d6 06 e7 3d 9e 40 a9 3d
       -0.09302496 0.036296118 0.11280601 0.08264278
000100 69 b7 aa 3c c7 c0 d0 bd 1e 1a fa 3b f8 f0 81 3d
       0.02083941 -0.10193019 0.007632508 0.06344789
000110 1d e5 92 bd 79 ef 1f bd 92 95 73 bc ec 30 0b 3b
       -0.07172606 -0.03904674 -0.014867203 0.0021238877
000120 fb 14 c7 bc 9a 0c ae bd b0 4c 34 bd 15 42 3d bc
       -0.024301996 -0.08498497 -0.044018447 -0.0115514
000130 c7 32 43 bd c3 b1 55 bc 5b b4 57 3d 71 70 1a 3d
       -0.047655847 -0.01304287 0.052662235 0.03770489
000140 84 d7 81 bd c2 30 7b bd ad 28 1d bd dd 0e 91 3d
       -0.063399345 -0.061325796 -0.03836887 0.07082913
000150 56 1e da bc 99 6c 07 bd 5a 0a c5 3b 56 c2 04 bb
       -0.026625793 -0.03306255 0.006013197 -0.0020257435
000160 2c d8 66 bd 4d 71 74 bd 99 fe e7 3c d7 02 ff 3c
       -0.0563585 -0.059678365 0.028319644 0.031129284
000170 04 d8 28 bd 8b 1f 1c bd 30 1e 4f 3d 1a 4c 8e 3c
       -0.041221634 -0.03811602 0.0505659 0.017370272
000180 f1 ee 59 3d 59 80 ab 3c 9b 11 2e 3d 43 f1 f2 3b
       0.053206388 0.020935224 0.04249726 0.0074140145
000190 a6 43 e3 bc 69 ec 23 be 2e 1d fd bd 9f 37 ca bd
       -0.027742218 -0.16008152 -0.12359081 -0.0987389
0001a0 ba b8 74 bc 33 43 8b bd 2a 67 7e be 44 fd 20 be
       -0.01493662 -0.067999266 -0.24844041 -0.15721613
0001b0 fb a9 76 bb 79 99 d9 bb 3f d5 4c be ea d2 da bd
       -0.0037637937 -0.00664061 -0.20003222 -0.1068476
0001c0 f8 b2 03 3d 58 2f 1a 3d 06 1b 78 3c 57 93 1e be
       0.0321531 0.037642807 0.015143162 -0.15485893
0001d0 ac d6 33 bd de f6 16 3e 3f eb a0 bb 2c bf ee bc
       -0.0439059 0.1474261 -0.004910856 -0.029143892
0001e0 de c7 84 bd 32 0a 56 bc a1 03 33 3e 59 f5 ab bb
       -0.06483434 -0.013063954 0.17481853 -0.0052477536
0001f0 eb e4 a5 bd c5 86 cc 3c 6e dc 1e 3b c0 ac 4b 3c
       -0.08100303 0.024966607 0.0024240273 0.0124313235
000200 be d7 c1 bc 9f a4 c8 bc bc bd 7e bd ba cb df bb
       -0.023662444 -0.02449256 -0.062192664 -0.006829706
000210 69 11 14 3c 0b 3f e6 3c ab 8d f4 3d 2e af 24 bd
       0.009037354 0.028106233 0.119410835 -0.040206127
000220 f8 5e ac 3d 34 20 cb 3d f0 c3 1f 3e 28 19 46 3d
       0.08416551 0.09918252 0.15602088 0.048363835
000230 c2 f9 58 bd 96 85 f8 3d cc f7 ab 3d 36 96 23 bc
       -0.052972563 0.121348545 0.08396873 -0.009984544
000240 a2 56 1e bd d3 b2 1b bd b2 32 70 3d bb c4 40 bd
       -0.03865684 -0.038012337 0.058642097 -0.047062617
000250 7c 42 51 3c 0a f6 91 bd 97 f3 b5 bc ac 27 0a 3c
       0.012772199 -0.07127006 -0.02221088 0.00843231
000260 ef aa 27 3d bb b8 71 bc d3 02 2a 3d 59 66 0c 3c
       0.0409345 -0.014753516 0.0415066 0.008569323
000270 27 3f 68 bd a1 8d a1 3d 27 fc c8 bb 38 c3 68 3a
       -0.05670085 0.07888342 -0.0061335745 0.00088791875
000280 dc c7 9d bd f8 56 6a 3d 58 f9 a7 3c b7 df 83 3d
       -0.07704136 0.057211846 0.020504639 0.064391546
000290 80 72 bf ba d3 a6 a0 bb 02 da 94 bc 1b b3 39 bd
       -0.0014606267 -0.0049026995 -0.01817036 -0.045336824
0002a0 bd 6b b8 bc 10 18 24 bd 05 ff 23 bc 87 a6 a6 3a
       -0.022512311 -0.04006201 -0.010009532 0.0012714424
0002b0 c8 07 34 3c 22 0f 95 bb a4 5d b7 bb fe c3 ba bd
       0.010988183 -0.004548923 -0.0055958796 -0.09119414
0002c0 fc 8b 20 3c 0a 6a bf bc f3 5e 3f 3c 18 05 3f 3d
       0.009799 -0.023365993 0.0116803525 0.046635717
0002d0 7f ce a6 bd 64 35 62 3d ac dd 7e bd eb 9a 74 3d
       -0.08144855 0.0552267 -0.06222312 0.059718054
0002e0 1e 67 ff 3c 17 fb f0 bc d2 84 a8 bd 32 34 0c bd
       0.0311771 -0.029416604 -0.082284585 -0.034229465
0002f0 68 80 86 bd 7e 3d de bc 7a bf 31 bd 8b e8 ae bd
       -0.0656746 -0.027128931 -0.043395497 -0.08540448
000300 6d 91 d5 bc 36 6c 32 bb 85 b9 8e 3d 34 54 fe 3b
       -0.026070321 -0.0027225143 0.06968979 0.0077615026
000310 fa 35 f6 bd bb 51 24 bd 71 33 98 3d 77 18 4d bd
       -0.12022014 -0.040117007 0.07431687 -0.05007216
000320 76 d1 aa bc 88 90 ac bd 32 0b 31 3b ed ec f8 bc
       -0.020851832 -0.08426005 0.002701473 -0.030386413
000330 31 da 8c bc aa a0 dd bc bf 2d c2 bd cf ba 52 bd
       -0.017193886 -0.02705415 -0.094813816 -0.051447686
000340 e1 19 a1 bc 88 03 bb bc b4 9e 0f bd 26 a8 59 bd
       -0.01966566 -0.022828832 -0.03506346 -0.053138874
000350 da 8c 20 3d 5f 26 4c 3d a8 69 21 3d 96 fb 42 3d
       0.039196827 0.04984128 0.039407402 0.047603212
000360 d4 e9 9c bd 5b ae 60 bb 1b d9 4e 3c d1 7a 64 bd
       -0.07661787 -0.0034283611 0.012625004 -0.05578119
000370 62 62 f9 3c 0b 5c ef bc 9f 70 c5 bc e1 c5 7b 3c
       0.03044242 -0.029218694 -0.024101553 0.015367002
000380 96 9a 95 3c 1c 4d f4 3b 0d 6e 2b bd f7 cf c4 3d
       0.018262189 0.007455481 -0.041853 0.09609979
000390 b0 20 a7 3c 1a 52 85 3c 13 09 e1 bb 75 d7 c8 bd
       0.020401329 0.0162745 -0.006867537 -0.0980672
0003a0 bf 2f 2a bc b1 73 a3 bd dd c4 86 bb c6 70 6a bc
       -0.01038736 -0.07981051 -0.0041128234 -0.014309114
0003b0 7d 64 06 3d 80 7b bd bc 9f e6 20 bd 75 0e ab bc
       0.032810677 -0.023130178 -0.039282437 -0.020880917
0003c0 3d 08 ce bd e2 66 81 bc 15 aa 34 bd 57 92 87 bd
       -0.10060165 -0.015796129 -0.044107515 -0.06619709
0003d0 44 89 f7 bc fb c4 c6 bd 3b 7f b2 3c 8c b2 e4 bc
       -0.03021682 -0.0970554 0.021789184 -0.027917169
0003e0 a6 00 9c 3d 9a c5 0a 3c 69 ed fc bc 76 d5 1a 3d
       0.07617311 0.008469963 -0.030874925 0.03780123
0003f0 98 e4 6a bd 2e 05 df 3c cf ab 28 3d ea 1e 9b bd
       -0.05734691 0.02722415 0.041179474 -0.07574256

conv2.bias f4 [20]
000000 4f 09 c1 3c 96 51 12 bb 3f f8 8d 3d 2f 5b 2e bd
       0.023564009 -0.002232646 0.06932115 -0.04256743
000010 c0 69 c9 bb ac 36 37 bd 7a f8 57 bd 91 16 12 bc
       -0.0061466396 -0.044729874 -0.0527272 -0.008916513
000020 dd 12 99 bd 48 84 46 bd 54 6c 77 bc 9f d8 76 bd
       -0.07474301 -0.048465997 -0.015101511 -0.06026518
000030 3b d2 70 bd 3a cd 79 3d c1 87 09 bd 5e 15 77 bd
       -0.05879424 0.060986735 -0.03357673 -0.06032311
000040 f9 69 a5 bc 4c 4a 96 bd fd 9a 2c bd f8 3b 2a 3d
       -0.020192133 -0.0733839 -0.042139996 0.041561097

fc1.weight f4 [50, 320]
000000 a1 d1 95 bd ca 3f 52 3c ec ee 19 3d a2 a0 96 3d
       -0.07315374 0.012832591 0.03758137 0.07354857
000010 f0 59 5d 3d 16 f0 2f bd 04 e5 16 bd 58 ad 32 3d
       0.05404085 -0.042953573 -0.0368395 0.043622345
000020 aa 0e c9 bc cc 5e fe 3b e7 3e a3 bc 22 90 ff 3c
       -0.024543125 0.0077627655 -0.019927455 0.031196658
000030 75 0e 89 3d be 03 c5 3c 8e 94 02 3d dc 75 5e 3c
       0.066922106 0.024049636 0.031879954 0.013577905
000040 7f 7f 31 bd af 55 9f 3c e7 79 0b bd e7 ab 0f 3d
       -0.04333448 0.019450037 -0.034051802 0.03507605
000050 ad dd 82 3d 2a 1b 9a bc a1 65 be 3b 74 46 73 3c
       0.063899375 -0.018811781 0.005810455 0.01484834
000060 34 46 8d 3d a0 d6 74 bd 00 29 43 3d 9a 26 14 3d
       0.06898156 -0.059774995 0.047646523 0.036169626
000070 9d 4b 43 39 68 96 28 bd 2c b5 16 bd 31 43 eb bc
       0.00018624817 -0.041159064 -0.036793873 -0.028718563
000080 18 95 e8 bb ed 4f 8c bb c4 0d 90 bd c5 54 87 bd
       -0.0070978515 -0.004281989 -0.070338756 -0.066079654
000090 c3 eb 0f 3d 3b 81 12 3d 8e 11 49 bb eb 59 22 3d
       0.03513695 0.035767775 -0.003068063 0.039636534
0000a0 3b f1 cc 3d cc f6 12 bc e1 d0 76 bd b3 9b b5 3c
       0.100069486 -0.008969974 -0.060257796 0.02216897
0000b0 d9 ab 3c 3b 31 4a 26 bd 95 74 15 bc 94 57 a8 bd
       0.0028788953 -0.0405981 -0.009122034 -0.08219829
0000c0 5b 5b 50 3a 55 d6 aa 3d 56 48 94 3d ed 1b af 3c
       0.00079481833 0.08341662 0.072403595 0.02137562
0000d0 00 32 95 bc ea 2c 51 3d f1 73 8c bd fe 7a 4c bd
       -0.018212318 0.051068224 -0.068580516 -0.049921982
0000e0 a5 ae 1f bd c4 14 bd bc 94 d4 a0 bd 6a d8 b6 bd
       -0.038984913 -0.02308119 -0.07853046 -0.089279965
0000f0 c3 23 e6 bd 68 e0 d0 bd 22 11 55 bd 22 7f 96 bd
       -0.1123729 -0.10199052 -0.052018292 -0.073484674
000100 6e eb 11 3c 66 c9 cb 3c 32 89 33 3d 67 e8 44 3b
       0.0089062285 0.024876308 0.04383201 0.003004575
000110 3b 81 8a 3a 3d 7b d8 3c 6c e9 f7 3c 77 7f d1 3c
       0.0010567078 0.026425952 0.030262671 0.025573475
000120 ab ec 81 bd 88 60 5b bd ab 97 91 3c 34 df 07 3d
       -0.06343969 -0.053558856 0.017772516 0.033171847
000130 f6 f1 28 bd c5 68 87 3d 14 a5 80 3d 72 f0 f1 bc
       -0.041246377 0.0661178 0.06281486 -0.029533599
000140 17 e0 55 bd 02 a1 4f 3d c7 1d e7 3c e8 61 b0 3c
       -0.05221566 0.05069066 0.028212441 0.02153106
000150 f0 cc 43 bd 91 47 a0 bc 0e c0 da bc 10 f4 e4 3c
       -0.047802866 -0.019565376 -0.026702907 0.02794841
000160 90 f1 0b bc 97 2f 54 bc 84 44 9c 3a c2 7f 01 bd
       -0.00854148 -0.012950799 0.0011922275 -0.03161598
000170 e9 bf d9 bc 35 90 d1 3c 8d 4a da 3c ac f3 4a bd
       -0.026580768 0.025581459 0.026646877 -0.04954879
000180 09 a3 b9 ba 42 f4 2d 3d 44 81 96 3d d6 96 af 3c
       -0.0014162968 0.04246927 0.07348874 0.021434229
000190 91 49 b3 3c 8d e8 68 3c e5 de d4 bb e0 ac 74 3d
       0.021885665 0.014215601 -0.0064962977 0.05973518
0001a0 46 5d f0 bb 16 ac ed bc d6 88 6c 3d 2d cf 55 3d
       -0.007335338 -0.029012721 0.057747684 0.05219953
0001b0 5d 11 a0 3d 09 4d fb 3c df 67 a7 3c 80 51 22 3d
       0.07815812 0.030676382 0.020435272 0.039628506
0001c0 57 f6 f7 bc 73 3a f9 bd bd b2 87 3c 59 d3 63 ba
       -0.030268831 -0.121693514 0.016564721 -0.0008690856
0001d0 cb 2b 0a bc ef 41 0e bd 4a 31 af bc db b8 7a 3d
       -0.008433293 -0.034730848 -0.021385808 0.06121145
0001e0 7e ca ae 3d 13 1b ce 3c 98 25 e5 3b 95 17 6f 3d
       0.08534716 0.025159394 0.006993007 0.0583721
0001f0 89 8f bc bc c8 c2 61 bd d9 28 02 3d 1b ca 80 bd
       -0.023017662 -0.0551174 0.031777237 -0.062885486
000200 31 d8 7d bd 79 a6 29 bd 34 ef 4d 3c 7a 15 fd bb
       -0.061973754 -0.041418526 0.0125692375 -0.0077235075
000210 00 50 37 3c 6f e1 88 3d 06 fb 38 3d bd e5 c7 3c
       0.011188507 0.06683623 0.04516127 0.02440154
000220 b5 39 71 3d 08 9d 38 3d dd fe 9d bc 4d 83 5c 3c
       0.058892924 0.04507163 -0.019286567 0.013459039
000230 cb 29 7c bd 7a bd 15 bd 5e 46 49 bd 80 ea c6 bb
       -0.061563294 -0.036557652 -0.049139373 -0.006070435
000240 d7 37 83 bc 95 27 e3 3c e4 1f c3 bc 9d b9 42 3d
       -0.016017837 0.027728835 -0.023818918 0.047540296
000250 94 4f 73 3d 9b d6 f1 bb 90 23 c2 3c 43 c0 8b 3b
       0.059402063 -0.0073803193 0.023698598 0.0042648627
000260 88 41 aa bb 8e ce b0 bb 24 af 0e bd 2e 19 87 bc
       -0.0051958 -0.005395717 -0.034834996 -0.016491499
000270 9c ae 6a 3d 26 17 cb 3d 0c 43 2a 3d 71 5e 8d 3b
       0.057295427 0.099165246 0.041567847 0.004314237
000280 17 d1 7e 3b 65 7c a1 bc cb c3 38 bd 2e bd fb 3a
       0.0038881951 -0.019712636 -0.045108598 0.001920616
000290 a6 2b 08 3d ed dd 4c 3c 92 73 5a 3d eb 76 1b bd
       0.03324475 0.012504083 0.053332873 -0.037955206
0002a0 6e 22 83 bd 1b 19 9c 3d 15 30 63 bb 57 9d a2 3c
       -0.06403051 0.07621976 -0.003466611 0.019850416
0002b0 4d 65 15 3d 44 6a b2 3d b3 19 87 3d 50 6d 4d bd
       0.03647356 0.08711675 0.065966986 -0.050153077
0002c0 d8 82 56 bd 85 e7 50 bd 21 f7 b0 bc 7a 89 39 bc
       -0.052370876 -0.051002044 -0.021602215 -0.011324281
0002d0 aa 39 d4 bc d0 d2 29 3d 0b ab a5 bc ba 63 04 3b
       -0.025906403 0.041460812 -0.020223161 0.0020201043
0002e0 a1 02 8c ba 48 9d 8e bc 14 84 5e bc b2 80 f0 3c
       -0.0010681936 -0.017408982 -0.013581295 0.029358242
0002f0 8a ce ea 3c 3c 01 a3 3d 48 5b ac 3c 80 cf 2c 3d
       0.028662939 0.0795922 0.02103962 0.042190075
000300 94 41 e1 bc d4 c9 2b 3d e2 63 cf 3c 53 57 15 3a
       -0.02749709 0.041940525 0.025316183 0.0005696911
000310 eb 43 a7 bb 0d b1 38 3d 67 c8 a6 bc 9d 33 53 bd
       -0.005104532 0.045090724 -0.020359231 -0.051562894
000320 44 d4 88 3d 03 72 1d bd 9d 8b 65 bd a2 e9 6f bd
       0.066811115 -0.03843881 -0.05604135 -0.05857242
000330 51 4b 97 bb 72 15 1b bd 78 66 b0 bc 63 12 7a bd
       -0.0046171327 -0.03786225 -0.021533236 -0.06105269
000340 c3 d1 82 bc 47 2b 55 3d 3d be dc 3c 97 cf 84 3c
       -0.015969163 0.052043226 0.026946181 0.016212268
000350 2a 14 b5 3c 8f 3c a1 bd 69 2f fc 3b c6 59 11 bd
       0.022104342 -0.07872879 0.0076960814 -0.035486005
000360 bb 51 62 bd 51 d4 d2 3b f2 f3 31 3d 65 7d da bc
       -0.055253725 0.0064340015 0.043445535 -0.02667112
000370 cd 13 1c bd 5a 0a af bc d2 12 b3 3c f4 07 36 bd
       -0.03810482 -0.02136724 0.02185956 -0.04444118
000380 60 c8 e0 3c 52 8c 84 3c a8 60 f6 bc 11 50 66 bb
       0.027439296 0.016180191 -0.030075386 -0.0035142938
000390 7b e1 d0 b8 9a db 84 3c bc e8 a7 bc d0 b7 3d 3d
       -9.960212e-05 0.016217995 -0.020496719 0.046317875
0003a0 00 ac 44 bd 9e 42 27 3d b6 70 de 3c 21 20 1e bd
       -0.048015594 0.040835015 0.027153354 -0.03860486
0003b0 83 04 16 3c 16 f4 b6 3c ab be 8c 3d 6b bb 57 3d
       0.009156349 0.022333186 0.068723045 0.05266897
0003c0 e9 97 fd bc 5f 99 f1 bc 4b 83 97 bd ba e7 9b bd
       -0.030956225 -0.029492078 -0.07398089 -0.07612558
0003d0 21 c3 3f bd 43 a6 fd 3b 8e ec 12 bd 2a e4 83 3d
       -0.04681695 0.007740767 -0.035870127 0.06440003
0003e0 3b 6a 86 3d 8b 78 92 3d 9f ec 89 3d 5e 3f c4 bc
       0.065632306 0.07151898 0.06734585 -0.023955997
0003f0 66 77 db 3c e8 9b b9 3c a9 07 e7 3c e4 4d a1 bd
       0.026790332 0.02265735 0.028201895 -0.078761846

fc1.bias f4 [50]
000000 61 76 ad 3c 88 e9 99 3a fe 26 5b 3c 6c f4 77 3d
       0.021174612 0.0011742571 0.013375996 0.060535833
000010 8a 67 a4 3d b9 ec 40 bd b9 73 0a bc df 14 23 bc
       0.08027561 -0.047100756 -0.008450442 -0.0099537065
000020 76 6f f7 bc 54 3b 00 3e cb 9f bb 3c af 90 c5 3c
       -0.030204516 0.12522632 0.022903344 0.024116842
000030 a4 6c 28 bd c9 d4 e0 3c d6 44 58 bc f6 7b 93 bd
       -0.041119233 0.027445214 -0.0132000055 -0.07201378
000040 7a 1f 5d 3d ec e9 92 bc f3 e2 2a b8 16 f7 93 bc
       0.053985097 -0.017933808 -4.074252e-05 -0.018062156
000050 1a 83 36 3b 65 46 55 3d db fc 2c bd cb 3c 0c bd
       0.0027849139 0.052069087 -0.04223333 -0.034237664
000060 07 07 2a 3d 53 0f ea bc c2 66 a3 bb cc 3e 73 bc
       0.041510608 -0.02857176 -0.004986615 -0.014846515
000070 d3 b7 1f bd d8 e2 b5 bb eb 70 df bc 00 64 ff 3c
       -0.038993668 -0.0055507235 -0.027275523 0.031175613
000080 67 d3 aa 3c 57 ff 07 bd ed 2b 3c bd a3 fd cb 3c
       0.020852758 -0.033202495 -0.04594033 0.024901217
000090 0b 81 c5 3b 1f 6b 32 bd 58 7e f4 39 88 8a 18 bc
       0.006027346 -0.04355919 0.0004663344 -0.009310372
0000a0 b0 67 15 bc 6a ed c7 3c 35 c4 7e 3c 8d ce 0a bd
       -0.009118959 0.0244052 0.015549709 -0.03388839
0000b0 e5 ff ae bc 40 54 7a bc fa 88 b9 bc 6e d5 64 bd
       -0.021362254 -0.015278876 -0.022648323 -0.055867605
0000c0 6f 0b 90 3c 32 d4 cd bb
       0.017583577 -0.006281399

fc2.weight f4 [16, 50]
000000 61 fd b1 3d 21 0c de bd 97 b6 3c 3e 03 d2 28 3e
       0.08690906 -0.10842157 0.18429027 0.16486363
000010 d0 7a a8 bd 76 c8 c6 bd 93 b3 04 be a1 0f 8e bd
       -0.082265496 -0.09706204 -0.12959127 -0.06936575
000020 72 f4 6c bd 01 21 7d be f3 b0 39 be cb a9 12 be
       -0.05785031 -0.24719621 -0.18133907 -0.14322583
000030 86 73 5c bb cb 36 63 3e 14 ba 85 3e 03 8b 29 3e
       -0.0033638193 0.2218887 0.2611853 0.16556935
000040 c3 12 35 3e 3a 91 54 3e e0 24 36 3e 20 e3 da bd
       0.17682938 0.20758525 0.17787504 -0.10687852
000050 ed 82 39 bd 9f b6 f7 bd 98 18 f6 bd f6 5e 83 be
       -0.045290876 -0.12095379 -0.1201641 -0.25658387
000060 3c fb 59 bd f5 74 65 be e1 a3 43 be 66 ae 3b be
       -0.05321811 -0.22407897 -0.19105484 -0.18328246
000070 be 1e ed 3b 71 db 75 3e 2a da db bd d0 9d 79 bd
       0.007236331 0.24009492 -0.10734971 -0.060941517
000080 7b fd 64 3e 16 20 24 3e c0 08 f4 bd c1 72 70 3e
       0.2236232 0.16027865 -0.119157314 0.23481275
000090 43 cd 01 3e 4e c0 c3 3c 5f dc 8e 3d de ef 13 be
       0.12675957 0.023895409 0.06975626 -0.14446971
0000a0 61 8e a1 bd 1f 48 42 be 58 6f 98 3e e4 92 7b bd
       -0.07888485 -0.18972825 0.2977245 -0.061419383
0000b0 e1 7d 8e 3d 06 7f 28 3e 5d 63 0d be 17 1f 59 bd
       0.06957603 0.16454706 -0.13807435 -0.053008165
0000c0 b3 28 6d 3e d6 c2 49 3e 61 53 4f 3e c2 32 57 3e
       0.23160057 0.1970323 0.2024665 0.21015456
0000d0 81 2f 02 be e9 8d 4e bd 08 6c 20 3e de ee 45 3e
       -0.12713434 -0.050428305 0.1566621 0.19329402
0000e0 90 68 34 be 3f 55 d0 3d 61 5d 4f 3e 84 5c 51 be
       -0.17618012 0.101725094 0.20250465 -0.20445448
0000f0 43 38 67 3e 25 19 8a 3e f8 f7 e1 bd 36 14 14 be
       0.22580056 0.2697231 -0.110336244 -0.14460835
000100 2d 27 ab bd eb ab 7d be e0 e4 18 3e a2 2d 09 3e
       -0.083570816 -0.24772613 0.14931059 0.13396314
000110 f1 63 63 be bd 5d 50 3d 7b dc 73 be b0 19 fd 3c
       -0.22206093 0.050870646 -0.23814575 0.030896038
000120 6a 76 54 3e 71 f6 f7 3d b4 01 0a 3e f0 79 72 be
       0.20748296 0.12107552 0.13477212 -0.23679328
000130 8a 6a 8f be a4 71 66 3e bd 60 49 3e 97 d0 c6 bc
       -0.2801097 0.22504288 0.19665809 -0.024269385
000140 4c 3c 59 3e 68 36 11 be 5d 7e 1c be d2 d9 31 be
       0.21214408 -0.1418091 -0.15282579 -0.17368248
000150 41 92 28 3e bd 18 2c 3e f9 cb 0e be 2b ca f6 bd
       0.16462041 0.16806312 -0.13944997 -0.12050279
000160 7f ed 32 3e 2d 55 a7 3d 34 09 a7 bd 46 c3 55 3e
       0.1747341 0.08170543 -0.08156052 0.20875272
000170 87 5a 0d be 23 da 39 be 3a 68 4e 3e f6 6e 03 be
       -0.13804065 -0.18149619 0.20156947 -0.12835297
000180 e9 63 4f be 24 9f 89 3e 30 33 71 be b4 39 bd bd
       -0.20252956 0.26879227 -0.23554683 -0.092395216
000190 fc 88 7c bd 69 60 99 bd a4 77 b5 3d 57 d7 97 3d
       -0.061654076 -0.07489092 0.0886071 0.0741412
0001a0 f3 80 1a be ab 65 2d 3e 2c 46 36 3e 4a 26 bf bd
       -0.15088253 0.16933315 0.17800206 -0.09333475
0001b0 4a 80 5a 3e 14 f5 12 3d 3b 7d b8 bd 4e 24 86 3e
       0.21338001 0.035878256 -0.09008261 0.26199573
0001c0 0e 4c 31 3e 31 8d 70 3e e2 0a 76 3e 61 2b 15 3e
       0.17314169 0.2349136 0.24027589 0.14567329
0001d0 ab 12 08 3d 71 6d b9 3d 70 b7 10 be 58 38 44 be
       0.03322093 0.090540774 -0.14132476 -0.19162118
0001e0 45 b7 3e bc cc 39 1b 3e 32 f2 17 be e5 a3 a7 bd
       -0.011640375 0.15158767 -0.14838484 -0.08185557
0001f0 23 50 6e bd 2f 78 40 bd b7 bb 21 be e0 82 66 3c
       -0.058181893 -0.046989616 -0.15794264 0.014069289
000200 68 5f 17 be b6 fe 82 ba 6f dd df bd e5 5b ce bd
       -0.14782488 -0.0009994123 -0.10930907 -0.10076121
000210 d8 40 04 3c 8d e6 ba bd cb f9 62 3e 18 47 6d 3e
       0.008072101 -0.09126005 0.22165601 0.23171651
000220 e5 b7 b0 bd 5e d4 11 be bd bb f8 3d e5 99 f9 3a
       -0.08628825 -0.14241168 0.12145183 0.0019043057
000230 07 49 75 3e 07 3a 46 3e fc 78 a8 bd eb 82 58 3c
       0.23953639 0.19358073 -0.08226201 0.013214807
000240 46 91 35 3e 8f a4 1b 3e d4 95 bc bd a3 b9 67 3e
       0.17731199 0.15199493 -0.09208265 0.22629409
000250 f1 8a 17 be b0 d6 2d 3e 50 73 05 3d 64 c1 70 3e
       -0.14799096 0.16976428 0.032580674 0.23511273
000260 91 ba 34 3e be 3e 45 be 2a f4 d1 bd 5e c1 43 be
       0.17649294 -0.19262215 -0.10251649 -0.19116732
000270 6e 05 f4 3d ee bd 47 3e 2a 02 55 bc a4 a9 1c 3d
       0.11915098 0.19506046 -0.013001004 0.03824772
000280 1d 4f e1 bd 3b ce 79 3e 73 93 0d be 44 8b 8b bd
       -0.11001418 0.24395077 -0.13825779 -0.06813672
000290 5f 69 52 3e 6f c6 08 bd a0 d7 be bd b0 d9 6d 3c
       0.20548008 -0.033392366 -0.09318471 0.014517233
0002a0 aa b1 c4 bd 11 32 4b 3e 82 94 60 3e 8b 15 4e 3e
       -0.09604199 0.19843318 0.21931651 0.20125405
0002b0 22 2b db 3d 5a e6 2a 3e 0d a8 4d be b3 a9 f7 bd
       0.10701586 0.16689435 -0.20083638 -0.120929144
0002c0 b6 3e 2d 3e 25 8f 11 be 0c e3 5e 3e 0d b5 b8 bd
       0.16918454 -0.14214762 0.21766299 -0.09018908
0002d0 f7 97 6c be b8 4e 47 3e 4b 4b 21 be 01 4d 2d 3e
       -0.23104845 0.19463623 -0.15751378 0.16923906
0002e0 25 8e 57 3e b3 9b da 3c 70 8a 3e 3e 84 14 80 3d
       0.21050318 0.026685571 0.18607497 0.06253913
0002f0 90 be 6f be 68 c1 b4 3c 32 a4 1d 3e 29 e3 54 3e
       -0.23412538 0.02206488 0.15394667 0.2078978
000300 fb 14 93 bd 8c 8f 13 3e 25 52 fd 3d bf b4 29 3d
       -0.07181736 0.14410228 0.123691835 0.04143214
000310 48 31 64 bc 4a f6 bd bd 8d 51 96 bd 4a 09 31 3e
       -0.013927765 -0.092754915 -0.07339773 0.172887
000320 4c f2 59 3e d8 e5 9f 3c ab 55 e1 bd b0 03 54 3d
       0.21283835 0.019518778 -0.11002668 0.05176133
000330 d7 0a d3 3d 5e db 30 3e 35 51 3a 3e 2f 6f 28 bd
       0.10304802 0.17271182 0.1819504 -0.041121658
000340 2a 4c 7f bd 96 59 19 be 9d 4c 84 3e 09 09 d1 bc
       -0.062328495 -0.1497558 0.258397 -0.025517004
000350 a0 03 75 3e 1b 35 20 be 36 ec 95 bd 54 0e 2d 3e
       0.23927164 -0.15645258 -0.07320444 0.16899997
000360 9d e6 b4 bd e0 9f 4a be 54 db 15 bd 93 99 e1 bd
       -0.088330485 -0.1978755 -0.03658612 -0.1101562
000370 ca 0d b8 bd 1c a2 ee bd 84 67 7f 3e bd 6f 69 3e
       -0.08987005 -0.11652014 0.24941832 0.22796531
000380 39 3c 33 3e 00 4b 63 3e f6 ec 07 3e 8f a5 51 bc
       0.17503442 0.22196579 0.13273987 -0.01279582
000390 0b 31 64 3e 59 2a ab bd 49 ae 0e 3e 17 58 65 3e
       0.22284333 -0.083576865 0.13933672 0.22396885
0003a0 44 9e 56 be b7 7c 73 be 59 69 10 be b8 35 fe bd
       -0.20958811 -0.23778044 -0.14102687 -0.1241259
0003b0 78 68 da bd 25 7b 8d 3e 29 cd 30 3e 16 7b 8c bd
       -0.10664457 0.27633014 0.17265762 -0.06859414
0003c0 a8 a9 50 be af 4d 27 bd f1 90 12 bd d7 d3 ec 3b
       -0.20377219 -0.04084557 -0.03578276 0.0072274017
0003d0 8b 0d 12 be 9d 17 31 3e 13 b6 ef bd 84 d5 2d be
       -0.14262979 0.17294164 -0.1170465 -0.16975981
0003e0 70 44 71 3e f6 97 da bd ce df 9b 3d 76 cd d5 bd
       0.23561263 -0.106735155 0.07611047 -0.10439579
0003f0 c0 6d 45 bd 97 89 55 be 19 71 56 3c 43 b2 9a bd
       -0.04820037 -0.20853268 0.013088488 -0.07553532

fc2.bias f4 [16]
000000 2a ae e6 bd 17 89 c5 bd 0d a6 a6 bc 1a bb da bc
       -0.11263688 -0.096452884 -0.020342851 -0.026700545
000010 4c 3c 2a be fb 07 e1 3d 48 f7 2a be c1 ca 41 be
       -0.16624564 0.1098785 -0.16695893 -0.18925
000020 28 47 78 3c c7 57 d6 bd a6 dd 1e 3e c8 19 e6 3d
       0.015153684 -0.10465961 0.1551424 0.11235386
000030 04 c4 ea bd 22 2c ab bd a4 98 2b 3e 99 22 61 3e
       -0.11463168 -0.08358027 0.16757447 0.21985854
